app/src/main/ml/model.tflite (tflite, 742836 bytes, 16 tensors)

dense_1/bias f4 [10]
0	0xbc676f47	-0.014125652
1	0xbd994b47	-0.07485061
2	0x3e4d1cde	0.20030543
3	0x3e11151c	0.14168209
4	0xbe4988fc	-0.19681162
5	0x3c9071c4	0.017632373
6	0x3de7dd88	0.113215506
7	0xbe25ff7f	-0.16210745
8	0xbe73ae1c	-0.23796886
9	0x3de9804e	0.11401425

dense/bias f4 [64]
0	0xbe39888e	-0.18118498
1	0xbe355ea1	-0.1771188
2	0x3e68bbe2	0.22727922
3	0x3e81318d	0.25233117
4	0x3d49e926	0.049294613
5	0x3dcaa224	0.09894207
6	0x3c5a79f9	0.013334745
7	0x3e05d187	0.1306821
8	0xbd4022a6	-0.046908043
9	0xbc8c356d	-0.01711532
10	0x3e1b627b	0.15174286
11	0x3ea7a240	0.32740974
12	0x3d1228e9	0.035683546
13	0x3e11a17f	0.14221762
14	0xbd97f1fb	-0.07419201
15	0xbcee0abe	-0.029057857
16	0x3e495965	0.19663008
17	0xbc21855d	-0.009858456
18	0xbdd7bf71	-0.105345614
19	0x3d1a03c8	0.037601262
20	0xbe14fbf0	-0.14549232
21	0xbd3601fc	-0.044435486
22	0xbcbca860	-0.023029506
23	0xbd2720f6	-0.04080292
24	0xbe3a5301	-0.18195726
25	0xbd37d53d	-0.044881094
26	0xbdd02eba	-0.101651624
27	0x3ea15232	0.31508023
28	0x3e58cb8f	0.21171401
29	0x3da62771	0.081129916
30	0x3d1c79aa	0.038201965
31	0x3dcbe9d0	0.099567056
32	0x3da8b457	0.08237522
33	0xbd914ebc	-0.070950955
34	0xbe2525dd	-0.16127725
35	0x3dca15ca	0.09867437
36	0xbd5dbded	-0.054136205
37	0xbc2807e1	-0.010255785
38	0xbd9b0a47	-0.075703196
39	0xbda2072e	-0.07911526
40	0x3e2c360b	0.16817491
41	0x3da9ad65	0.082850255
42	0xbcda7206	-0.026665699
43	0x3d38ea98	0.0451456
44	0xbd831cbc	-0.06401965
45	0x3e2919a7	0.16513692
46	0x3dfcdc0a	0.123466566
47	0x3c845aab	0.016156515
48	0x3e807ce5	0.25095287
49	0x3e39fc53	0.1816266
50	0x3e432182	0.19055751
51	0xbbaf16cc	-0.005343294
52	0x3cba0abb	0.022710195
53	0x3ced2fc7	0.028953446
54	0xbe11c4c3	-0.14235215
55	0xbd34a4da	-0.044102527
56	0xbdbb313d	-0.09140251
57	0x3cc7b1a7	0.024376703
58	0xbdba76c1	-0.09104682
59	0xbe1e2ae7	-0.15446053
60	0xbd8a772e	-0.06761013
61	0x3e435848	0.19076645
62	0xbd4c2883	-0.049843322
63	0x3ea81a58	0.328326

conv2d_5/bias f4 [64]
0	0xbb992447	-0.004673514
1	0x3e89e110	0.26929522
2	0xbe0081d9	-0.12549533
3	0x3d71db44	0.059047
4	0xbd2ea8ca	-0.04264144
5	0xbd4d11b9	-0.05006573
6	0x3be49abc	0.0069764536
7	0x3e2d307e	0.1691303
8	0xbc456b7a	-0.01204955
9	0xbce1f880	-0.027584314
10	0x3d934316	0.0719053
11	0xbd90a5dd	-0.07062886
12	0x3e8e4b7c	0.27791965
13	0xbd619e88	-0.055082828
14	0xbd716f23	-0.05894388
15	0x3e59d4ee	0.21272632
16	0x3e7d3531	0.24727322
17	0xbd35be88	-0.044371158
18	0xbc66033d	-0.014038858
19	0xbd578674	-0.05261846
20	0x3e84fd46	0.25974482
21	0x3dcda831	0.100418456
22	0x3e694413	0.22779875
23	0xbdb88d93	-0.09011378
24	0x3e9f5ffc	0.31127918
25	0xbcb2fea9	-0.021849947
26	0xbce31d41	-0.02772391
27	0xbcb1ad58	-0.021689102
28	0x3e480de9	0.19536556
29	0xbd8b6d3d	-0.06807945
30	0x3ca66a30	0.020314306
31	0xbccdbcc4	-0.025114425
32	0x3d13c0bb	0.036072474
33	0xbca89e10	-0.020583183
34	0xbd9355fd	-0.07194135
35	0x3cba19f3	0.022717452
36	0xbd46cd14	-0.04853542
37	0xbd06bd3f	-0.032895323
38	0x3e057691	0.1303351
39	0xbdabd473	-0.08390131
40	0xbd66a1eb	-0.05630676
41	0xbd9aeeba	-0.07565065
42	0xbe2fe3bd	-0.17176719
43	0x3a8b4e1b	0.0010628136
44	0x3d69b901	0.0570612
45	0xbd9d3f19	-0.076780505
46	0xbd2badae	-0.04191368
47	0xbcb9022d	-0.022584045
48	0xbd1b6a92	-0.03794343
49	0xbd845f0f	-0.064634435
50	0x3dcd7290	0.10031617
51	0x3e079118	0.13238943
52	0xbe14280c	-0.14468402
53	0xbd77d4ca	-0.060505666
54	0xbdc03921	-0.093858965
55	0xbd05fc75	-0.032711465
56	0xbd08bab8	-0.033381194
57	0x3d3ddfb8	0.046355933
58	0xbc406c09	-0.011744508
59	0xbdd8c7ab	-0.10584959
60	0xbda1c827	-0.07899504
61	0x3d8ffdf4	0.070308596
62	0xbd0fb6de	-0.035086505
63	0xbe520168	-0.20508349

conv2d_4/bias f4 [64]
0	0xbd56aacc	-0.05240898
1	0x3db432a1	0.08798719
2	0x3d41b0b5	0.04728766
3	0x3e59495b	0.21219389
4	0xbd81eb19	-0.063436694
5	0xbd3b595a	-0.04573951
6	0x3baccdee	0.005273572
7	0xbdce046c	-0.10059437
8	0x3d5f3e42	0.054502733
9	0xbd8d9485	-0.069130935
10	0xbd92f9c9	-0.07176549
11	0x3cad9ef1	0.021193953
12	0xbe26f2eb	-0.16303603
13	0x3dc52a50	0.09627211
14	0xbddfc44f	-0.10926115
15	0x3d499b6a	0.04922048
16	0x3e686efd	0.22698589
17	0xbd84a1ee	-0.06476198
18	0x3e5b8402	0.21437076
19	0xbe1d1997	-0.15341793
20	0x3e26c470	0.16285872
21	0x3c622dc8	0.01380486
22	0xbd802796	-0.062575504
23	0xbdef8cb8	-0.11696762
24	0xbd368b1c	-0.04456626
25	0x3de6bc2f	0.11266362
26	0x3db27e68	0.08715516
27	0xbd641942	-0.05568815
28	0xbd2704dd	-0.040776122
29	0xbe25a3d9	-0.16175784
30	0xbd5e1c84	-0.054226413
31	0xbe182115	-0.1485637
32	0xbc8b534d	-0.017007494
33	0x3d99a69a	0.0750248
34	0xbdcbb8ee	-0.09947382
35	0xbd0e6fcf	-0.034774598
36	0xbdabb048	-0.08383232
37	0x3eaca84f	0.3372216
38	0xbdffada6	-0.12484293
39	0xbd92fb7f	-0.07176875
40	0xbd957533	-0.072977446
41	0x3d4a255e	0.049352042
42	0xbd0bf53b	-0.034169417
43	0xbe00530d	-0.12531681
44	0x3dfe404b	0.12414607
45	0x3e4d6449	0.20057787
46	0xbddad84d	-0.10685787
47	0xbda11540	-0.07865381
48	0xbda5e5de	-0.08100484
49	0xbdb4a879	-0.08821196
50	0xbddfdfaa	-0.109313324
51	0xbe05786f	-0.13034223
52	0xbe357b4d	-0.17722817
53	0x3ce8e62f	0.028430073
54	0x3d43e1e2	0.04782284
55	0x3e76bf3f	0.24096392
56	0xbd935b68	-0.07195169
57	0xbd5074e8	-0.05089274
58	0xbe400eea	-0.1875569
59	0xbdbeec69	-0.093224354
60	0xbe229c8d	-0.15880032
61	0xbdd892be	-0.10574864
62	0xbcc52347	-0.024064673
63	0xbdb71ad3	-0.08940663

conv2d_3/bias f4 [64]
0	0xbdbf5a46	-0.0934339
1	0x3dc6c237	0.09705012
2	0xbda075f1	-0.078349955
3	0x3c87b3d3	0.016565239
4	0xbd6dd674	-0.058065847
5	0xbe4982e6	-0.1967884
6	0xbd89aa65	-0.06721953
7	0xbd61fabd	-0.055170763
8	0xbd8db0f9	-0.069185205
9	0x3c3aa7a2	0.011392506
10	0x3e0c2d57	0.13689171
11	0xbd8e71e5	-0.069553174
12	0xbe5764f2	-0.21034601
13	0xbda33ca2	-0.07970549
14	0x3d1e070d	0.038580943
15	0xbdbfaaaf	-0.09358727
16	0xbdbe868c	-0.093030065
17	0x3e02436c	0.12721032
18	0xbd81950a	-0.06327255
19	0xbd83ce04	-0.06435779
20	0x3e58bc31	0.2116554
21	0xbda46ce9	-0.080285855
22	0xbde0587e	-0.109543785
23	0xbb98e188	-0.0046655573
24	0xbd80901d	-0.062774874
25	0xbdaaef11	-0.083463795
26	0xbd63a31f	-0.055575486
27	0xbd097763	-0.03356112
28	0xbe0d5aa3	-0.13804106
29	0xbd396d8f	-0.0452705
30	0xbd3f3e73	-0.046690416
31	0xbce1352b	-0.027491173
32	0x3ddcb17c	0.1077604
33	0xbd469b01	-0.048487667
34	0x3d05d4eb	0.032673758
35	0x3da1ea5d	0.079060294
36	0xbe01cb62	-0.1267524
37	0x3d0e9691	0.03481156
38	0xbe23d106	-0.15997705
39	0xbdb46f06	-0.088102385
40	0x3d0976cb	0.033560555
41	0xba2a7e83	-0.0006503837
42	0x3d160da2	0.036634095
43	0xbd2b7082	-0.041855343
44	0x3e02f0ea	0.12787214
45	0xbdae49ca	-0.08510168
46	0xbd9adb8e	-0.07561408
47	0xbd50f68f	-0.051016387
48	0x3e0cbb67	0.13743363
49	0xbd89939e	-0.06717609
50	0xbc0ca193	-0.008583444
51	0xbdadca36	-0.08485834
52	0xbdc943d1	-0.09827388
53	0xbd59b7e2	-0.05315388
54	0xbd7db647	-0.06194141
55	0xbc09c42a	-0.008408586
56	0xbd1ac3b9	-0.037784312
57	0x3e0a8a8c	0.13529414
58	0xbd80c34b	-0.06287249
59	0x3d3cb6ad	0.04607265
60	0xbe3b8ccd	-0.1831543
61	0xbda83995	-0.08214108
62	0x3d313330	0.043261707
63	0xbdbfb46f	-0.09360587

conv2d_2/bias f4 [64]
0	0xbd2bb88c	-0.041924044
1	0x3d3fee78	0.04685828
2	0xbe15ed0b	-0.14641206
3	0xbcaa88d9	-0.020817207
4	0xbccdad18	-0.025106952
5	0xbcc11024	-0.023567267
6	0xbcedd6c9	-0.029033082
7	0xbd7b92cb	-0.06141929
8	0xbd33cc0f	-0.043895777
9	0xbd464da7	-0.0484139
10	0xbd69ee5f	-0.057112094
11	0xbd65402b	-0.0559694
12	0xbd612ed9	-0.054976318
13	0xbd800b36	-0.06252138
14	0xbd1a3b48	-0.03765419
15	0xbd42b1c2	-0.047532804
16	0x3cc493f4	0.02399633
17	0xbd8ba79b	-0.068190776
18	0xbe03afe8	-0.12860072
19	0x3e0097c2	0.12557891
20	0x3da6ae65	0.08138732
21	0xbd80cf0f	-0.06289493
22	0x3c4ade96	0.01238217
23	0x3ce4ea9a	0.027943898
24	0xbe132dcd	-0.1437294
25	0xbd2ee86e	-0.04270213
26	0xbc9a3611	-0.018824609
27	0xbd7572a7	-0.059923794
28	0xbd8c3788	-0.06846529
29	0xbcd8b3ee	-0.026452985
30	0xbd5b4342	-0.05353094
31	0xbd838903	-0.06422617
32	0x3c099831	0.008398102
33	0xbd5a967e	-0.053366177
34	0xbd2a9468	-0.041645437
35	0xbe4fdd91	-0.20299365
36	0xbd589a6d	-0.052881647
37	0xbd5cf5a5	-0.053945202
38	0x3c4b912c	0.012424748
39	0xbd4fbfbb	-0.050719958
40	0xbce57c4b	-0.028013369
41	0xbd634863	-0.055488955
42	0x3beb8c48	0.0071883537
43	0xbcb1dfeb	-0.021713218
44	0xbce30546	-0.027712476
45	0x3de5ca7d	0.11220262
46	0xbd4fe927	-0.05075946
47	0xbd382548	-0.04495743
48	0xbd75bb24	-0.059992924
49	0xbd154232	-0.036440082
50	0xbd67e4be	-0.05661463
51	0xbcfa3fda	-0.030548025
52	0xbd9ad456	-0.07560031
53	0xbd070e9b	-0.032972913
54	0xbd965550	-0.07340491
55	0xbd3528f4	-0.04422851
56	0x3debd8de	0.115159735
57	0xbe068dd6	-0.13140044
58	0xbd13eaf4	-0.03611274
59	0xbd93fb43	-0.07225659
60	0xbce9bec4	-0.028533347
61	0xbe3ce10f	-0.18445228
62	0xbdefa79e	-0.11701892
63	0xbd578109	-0.052613292

conv2d_1/bias f4 [64]
0	0xbd54c48e	-0.05194526
1	0xbc1d002a	-0.009582559
2	0xbc77d30d	-0.015126002
3	0xbd8442ae	-0.06458031
4	0xbdb20774	-0.08692828
5	0x3db90fd0	0.09036219
6	0xbd4da676	-0.050207578
7	0xbda72c6b	-0.08162769
8	0xbd4091cb	-0.04701404
9	0xbcc06656	-0.023486298
10	0xbc2d5054	-0.010578234
11	0xbd31a136	-0.043366633
12	0x3cb904a8	0.022585228
13	0xbc126b4e	-0.008936716
14	0xbe0c8c26	-0.13725337
15	0xbd99f0fc	-0.07516667
16	0xbd36534f	-0.044513043
17	0xbd06cba0	-0.032909036
18	0xbcf16b85	-0.029470215
19	0xbccdcbc6	-0.02512158
20	0xbd160b66	-0.036631964
21	0xbdc0c6cb	-0.09412917
22	0xbd1f96c1	-0.03896213
23	0xbe2a0dae	-0.16606781
24	0xbd8e3562	-0.06943776
25	0xbd46a3ae	-0.04849594
26	0xbe2ccea6	-0.16875705
27	0xbd89712d	-0.0671104
28	0xbce8badf	-0.02840942
29	0x3e2da37e	0.16956899
30	0xbdf15eae	-0.11785637
31	0x3d16ccce	0.03681641
32	0x3d273fc9	0.040832315
33	0xbd76af82	-0.06022597
34	0xbc75656c	-0.014977794
35	0xbd933ac8	-0.07188946
36	0xbd886464	-0.06659773
37	0xbd42bca1	-0.04754317
38	0xbc40007c	-0.0117188655
39	0xbbe0cb3b	-0.0068601645
40	0xbd198d5f	-0.037488338
41	0xbd20eb83	-0.0392871
42	0x3de2ec1e	0.11080192
43	0xbd112ff5	-0.035446126
44	0xbdd51acf	-0.10405504
45	0x3d43c987	0.047799613
46	0x3d592670	0.053015172
47	0xbdcfc5a1	-0.101451166
48	0xbd6beb87	-0.057597663
49	0xbe229372	-0.15876558
50	0xbe5197e3	-0.20468096
51	0xbe10a0d9	-0.14123859
52	0xbccbe082	-0.024887327
53	0xbce5b77a	-0.02804159
54	0xbd0a7c65	-0.033810038
55	0x3e2add17	0.16685902
56	0xbe291662	-0.16512445
57	0xbd34e2a6	-0.04416146
58	0xbcde2083	-0.027115112
59	0xbdb4ede5	-0.08834437
60	0xbd528961	-0.051400546
61	0xbdec3853	-0.115341805
62	0x3d472793	0.048621725
63	0x3dd710ab	0.10501226

conv2d/bias f4 [32]
0	0xbe0afd44	-0.13573176
1	0xbcef3545	-0.029200206
2	0xbd374f88	-0.04475358
3	0xbdd5c7e6	-0.10438518
4	0x3d69c53f	0.057072874
5	0x3b0f1c41	0.002183691
6	0x39d2ac04	0.00040182483
7	0xbd6ccad1	-0.05781061
8	0x3c894fe1	0.016761722
9	0x3e1d1c70	0.1534288
10	0x3db3e5a9	0.087840386
11	0xbc249fa2	-0.010047825
12	0xbdcc2b0f	-0.0996915
13	0xbcaf4682	-0.021395925
14	0xbe1cfc76	-0.15330681
15	0xbd1342f9	-0.035952542
16	0xbcbc7bf2	-0.02300832
17	0x3dce6077	0.10076993
18	0x3d948865	0.07252578
19	0xbd1fc98f	-0.03901058
20	0x3c022776	0.0079439785
21	0xbc8f5620	-0.017497122
22	0xbc70ec79	-0.014704817
23	0x3b45b9d9	0.0030170588
24	0x3a5d4ec8	0.000844222
25	0xbd0885d2	-0.033330746
26	0xbca22bb5	-0.019796232
27	0x3df6369c	0.12022135
28	0x3d179a10	0.03701216
29	0xbd386613	-0.04501922
30	0xbc284bdb	-0.010271992
31	0x3c9cfb66	0.019162845

sequential_2/dense/MatMul f4 [64, 256]
0	0x3d88efb4	0.06686345
1	0xbdb90dd1	-0.090358384
2	0xbcd3b823	-0.02584464
3	0xbe05f53d	-0.13081832
4	0xbd9fb547	-0.07798248
5	0x3e0cf3b1	0.13764836
6	0x3dd95507	0.10611921
7	0x3daed222	0.085361734
8	0x3dd0518e	0.10171805
9	0xbda56541	-0.08075953
10	0xbd7d8a40	-0.061899424
11	0xbdd33033	-0.10311928
12	0x3c9ae3ce	0.018907454
13	0x3d5dd1fd	0.05415534
14	0x3d0ef76c	0.03490393
15	0x3d5f65a5	0.054540295
16	0x3e61555c	0.22005218
17	0xbd9f7722	-0.07786395
18	0x3e0629db	0.13101904
19	0x3df9b1f4	0.12192145
20	0xbe0445db	-0.12917273
21	0xbd0a12ad	-0.033709217
22	0xbe2e5356	-0.17023978
23	0x3dc32891	0.09529222
24	0x39f530e4	0.00046766468
25	0xbdf50362	-0.11963536
26	0x3d037c21	0.0321008
27	0x3d8ad2d8	0.067784965
28	0xbdc10b53	-0.09425988
29	0x3e667cd5	0.22508557
30	0x3dd4e6e9	0.10395605
31	0xbe008bc2	-0.12553313
32	0xbc215204	-0.009846214
33	0x3cb20325	0.021730015
34	0xbdd9a08e	-0.106263265
35	0xbd6f9b81	-0.05849791
36	0x3d756b25	0.059916634
37	0xbdfa4dba	-0.122218564
38	0x3d0c5ce6	0.034268282
39	0x3e4f3836	0.20236287
40	0xbcf1c8c9	-0.029514687
41	0x3e5af9b2	0.21384314
42	0x3d836c7a	0.06417175
43	0x3e0addfa	0.1356124
44	0x3d721888	0.059105426
45	0x3dc3ac65	0.09554366
46	0x3de60e0c	0.11233148
47	0x3e09876a	0.13430563
48	0xbc806aaf	-0.01567587
49	0x3dd4af70	0.103850245
50	0x3c0732c5	0.0082518505
51	0xbc3323a8	-0.010933794
52	0x3e3d1318	0.18464315
53	0xbd638a9d	-0.055552114
54	0x3e463a54	0.19358188
55	0xbc204eb9	-0.009784394
56	0xbb2efa9e	-0.0026699672
57	0x3d8b0ba8	0.06789333
58	0x3e05d7e6	0.1307064
59	0x3d7231fc	0.0591297
60	0xbd937c44	-0.07201436
61	0xbdadd42c	-0.08487734
62	0xbd9224fe	-0.07135962
63	0x3df57521	0.11985231
64	0x3e28bef9	0.164791
65	0xbe25bc37	-0.1618508
66	0xbd7b5456	-0.061359726
67	0xbe54b8e7	-0.2077366
68	0x3d8b7a8f	0.068104856
69	0x3c8645f2	0.016390774
70	0x3d65dff5	0.056121785
71	0x3d3db211	0.046312395
72	0x3d26877e	0.04065656
73	0x3d9e09cc	0.07716712
74	0xbd989964	-0.07451132
75	0x3a432e43	0.0007445553
76	0xbe66d84f	-0.22543453
77	0x3cfa41e0	0.03054899
78	0x3e20614a	0.15662113
79	0x3e09b99a	0.13449708
80	0x3d795201	0.06086922
81	0xbd53cb7f	-0.05170774
82	0x3d0fc9c0	0.035104513
83	0xbd687050	-0.056747735
84	0xbdf8e458	-0.12152928
85	0xbe36be21	-0.17845966
86	0x3de56f75	0.11202899
87	0x3d5dad57	0.054120388
88	0xbe2c1e91	-0.16808535
89	0x3e0a798d	0.1352293
90	0x3d647cf0	0.055783212
91	0xb9ddab74	-0.00042280147
92	0x3dfed4ce	0.12442933
93	0x3d9cfd4f	0.07665502
94	0x3e1735e4	0.14766651
95	0x3d8bde4e	0.06829511
96	0x3d74b4a5	0.05974259
97	0xbdf3e960	-0.11909747
98	0xbc8c08b1	-0.017093988
99	0xbdf94ee7	-0.121732526
100	0xbd00aa5f	-0.03141248
101	0xbcbf034b	-0.023317
102	0x3d1d4a35	0.038400847
103	0x3dbd968b	0.092572294
104	0x3d4dbcb2	0.050228782
105	0xbdaadbb1	-0.08342684
106	0x3e5dc9ee	0.21659061
107	0x3e6062ad	0.21912642
108	0x3ab20125	0.0013580663
109	0xbe0e2004	-0.138794
110	0xbd354418	-0.044254392
111	0x3d23e330	0.040011585
112	0xbc131f47	-0.008979625
113	0xbc89d7eb	-0.01682659
114	0xbca692d7	-0.02033369
115	0xbd1743fb	-0.036930066
116	0x3e3425fa	0.17592612
117	0xbcc037e3	-0.023464149
118	0xbe038b86	-0.12846193
119	0xbc4421bc	-0.0119709335
120	0xbddd7eec	-0.10815224
121	0x3da17b41	0.07884837
122	0x3dbd99af	0.092578284
123	0xbd6aa5e2	-0.057287104
124	0xbdc45224	-0.095859796
125	0x3b9957d5	0.00467966
126	0x3d192179	0.037385438
127	0x3e8c2808	0.2737429
128	0xbdc085da	-0.0940053
129	0xbe31dd9a	-0.1736969
130	0x3c26b48d	0.010174883
131	0xbdcf1660	-0.101116896
132	0x3e16718c	0.14691752
133	0xbcb9095b	-0.022587469
134	0xbdb0205f	-0.08599924
135	0xbcc6f3ae	-0.024286117
136	0x3c19d71b	0.009389664
137	0xbd82005c	-0.06347725
138	0xbe85ec06	-0.26156634
139	0x3c18052b	0.009278576
140	0x3b9998cf	0.0046874057
141	0x3d183380	0.03715849
142	0xbc39a4af	-0.011330768
143	0xbded9b29	-0.1160186
144	0x3dec623c	0.11542174
145	0x3b16db68	0.002301896
146	0x3caaee84	0.020865686
147	0xbd91b83e	-0.071152195
148	0xbd855b6c	-0.06511578
149	0xbe60a8ac	-0.21939343
150	0x3db07bbf	0.08617353
151	0xbd250842	-0.04029108
152	0xbd92987d	-0.07157991
153	0xbdedae21	-0.11605478
154	0x3d442ac9	0.047892366
155	0x3d4130ce	0.047165684
156	0x3e1a56d6	0.15072188
157	0x3e49534d	0.19660683
158	0x3e5deb9b	0.21671908
159	0x3e16d746	0.14730558
160	0xbbe95f3c	-0.0071219485
161	0x3dd9a134	0.1062645
162	0xbe127327	-0.1430174
163	0xbe7a5253	-0.24445467
164	0xbd803fbe	-0.06262158
165	0xbe145a32	-0.14487532
166	0xbc7f5a09	-0.015585431
167	0x3df3ba41	0.119007595
168	0x3d886535	0.06659929
169	0x3d290025	0.041259903
170	0x3d21a255	0.039461453
171	0x3ccbcc18	0.024877593
172	0xbdf33df9	-0.11877055
173	0xbdbc8e0c	-0.09206781
174	0xbe0911fe	-0.1338577
175	0xbdba8902	-0.091081634
176	0x3e8037ea	0.2504266
177	0x3decf196	0.11569516
178	0x3c72eb42	0.014826598
179	0x3e43cd19	0.19121207
180	0x3e3a647c	0.18202394
181	0x3daa114a	0.08304079
182	0x3dabf381	0.08396054
183	0xbbd89697	-0.0066097486
184	0xbe7e3b4a	-0.24827304
185	0x3e91fae1	0.28511718
186	0x3d31a4d1	0.04337007
187	0xbde4df2f	-0.111753814
188	0x3bdcfa9f	0.0067437436
189	0x3dc658a2	0.09684874
190	0x3d4a0282	0.049318798
191	0xbd378d45	-0.04481246
192	0xbdca0957	-0.09865063
193	0x3d09818a	0.033570804
194	0xbdd217bd	-0.10258434
195	0xbe29ece3	-0.16594271
196	0x3df202ff	0.11816978
197	0xbdf6bc52	-0.12047638
198	0xbd9d81ce	-0.07690774
199	0xbe62c582	-0.22145656
200	0xbd9a4e42	-0.07534458
201	0xbd1eba26	-0.038751744
202	0xbde7938f	-0.113074414
203	0x3c850191	0.016236098
204	0xbd71ce40	-0.059034586
205	0xbc9bceb2	-0.019019458
206	0x3defd1d5	0.11709944
207	0x3cc9839f	0.024598895
208	0x3d6b5f6e	0.057464056
209	0xbc011bf5	-0.007880201
210	0xbd85a05a	-0.06524725
211	0xbc933d22	-0.017973486
212	0xbe90e2b7	-0.2829797
213	0x3b8cea4a	0.0043003904
214	0x3ddc7280	0.10764027
215	0x3e2134ba	0.1574277
216	0x3e210a50	0.1572659
217	0x3cefaa77	0.029256089
218	0x3e5cd312	0.21564892
219	0xbc3e9dad	-0.0116342725
220	0x3ca8e3ad	0.020616377
221	0x3dabaa1e	0.08382057
222	0xbceed7cd	-0.029155636
223	0x3d2a7818	0.041618437
224	0x3dc19cb0	0.09453714
225	0xbc884813	-0.01663593
226	0x3dda705f	0.10665964
227	0xbbd6d4ca	-0.006556128
228	0xbdd26890	-0.1027385
229	0x3bd1aabf	0.0063985283
230	0xbca2b354	-0.019860901
231	0xbd589fbc	-0.05288671
232	0xbe0917c8	-0.13387978
233	0xbda53918	-0.080675304
234	0xbd5437d7	-0.051811066
235	0x3d93f640	0.07224703
236	0xbe2f93b6	-0.17146191
237	0xbdc942c7	-0.0982719
238	0xbd4fa52a	-0.050694622
239	0x3cbdd108	0.023170963
240	0x3e0775bc	0.13228506
241	0x3a39200d	0.0007061966
242	0xbe13294d	-0.14371224
243	0xbd5aad25	-0.05338778
244	0x3e21052f	0.15724634
245	0x3c80714a	0.01567902
246	0xbe3d2f5c	-0.18475097
247	0x3dbd7573	0.09250917
248	0xbe4c7950	-0.19968152
249	0xbb5d07c7	-0.003372656
250	0xbb1a977e	-0.0023588832
251	0x3dc646e4	0.0968149
252	0xbe156474	-0.14589101
253	0xbdd79953	-0.10527291
254	0x3c430f5f	0.01190552
255	0x3e652f59	0.22381343

sequential_2/dense_1/MatMul f4 [10, 64]
0	0xbde1d2c5	-0.11026529
1	0x3e58a76a	0.21157613
2	0xbea46741	-0.32110026
3	0xbd3cbf95	-0.046081144
4	0x3e2135fe	0.15743253
5	0x3dee0c95	0.116234936
6	0xbd841c59	-0.064507194
7	0x3de7aa5d	0.11311791
8	0x3d88065c	0.06641838
9	0xbd44202a	-0.047882237
10	0xbe81165e	-0.25212377
11	0xbd81b94d	-0.063341714
12	0x3d918f51	0.071074136
13	0x3e266d64	0.16252667
14	0x3e72f982	0.23727992
15	0xbd1a3f02	-0.037657745
16	0x3d53db45	0.051722784
17	0xbe86d8c7	-0.26337263
18	0x3d8aaa1b	0.06770726
19	0xbc831106	-0.015999328
20	0xbeadd753	-0.33953342
21	0xbe2713a8	-0.16316092
22	0xbe7cac48	-0.24675095
23	0xbd7d340d	-0.061817218
24	0x3c8f28d6	0.017475527
25	0xbeb27b7f	-0.34859845
26	0x3e25b0cb	0.16180722
27	0x3e1e5c77	0.1546496
28	0xbea33237	-0.31874248
29	0x3e75555d	0.23958345
30	0x3ddae6bf	0.106885426
31	0x38d9c39c	0.000103838014
32	0x3e8f7b13	0.28023586
33	0x3c2eeaaf	0.01067607
34	0xbe12175e	-0.14266726
35	0x3e12213e	0.14270493
36	0x3dd824a0	0.10553861
37	0xbd14452f	-0.03619879
38	0xbebc2c0c	-0.36752355
39	0x3e7d4430	0.24733043
40	0x3eba302f	0.36364886
41	0x3df38448	0.11890465
42	0xbd370872	-0.04468579
43	0x3e4d455d	0.20045991
44	0x3e358e0f	0.17729972
45	0xbca55490	-0.020181924
46	0xbe972b17	-0.29525062
47	0xbdc3cfbf	-0.09561109
48	0xbe05622c	-0.13025731
49	0xbcabebeb	-0.020986518
50	0x3d9882f1	0.0744685
51	0xbe2301ab	-0.15918605
52	0xbd901c1d	-0.07036612
53	0xbd647daa	-0.055783905
54	0xbdcf1e6e	-0.10113226
55	0x3dafdb2a	0.08586724
56	0xbe994fdd	-0.29943743
57	0x3df4f094	0.11959949
58	0xbea1bda8	-0.3159001
59	0xbe92c326	-0.2866451
60	0x3e9098ac	0.2824148
61	0xbe6f32d1	-0.23359229
62	0xbe9b6b65	-0.30355373
63	0xbe4b444f	-0.19850276
64	0x3da685ad	0.081309654
65	0xbe2e7075	-0.17035086
66	0xbea14f01	-0.31505588
67	0xbed8a705	-0.42314926
68	0xbe760c08	-0.24028027
69	0x3e2116d0	0.15731359
70	0x3e1b06c9	0.15139307
71	0x3cc21d25	0.023695538
72	0xbdd00b5d	-0.101584174
73	0x3e6739b7	0.2258061
74	0x3de07b46	0.109610125
75	0xbe78c228	-0.24292815
76	0x3e48b5ec	0.19600648
77	0x3de2ced9	0.11074609
78	0xbdf6f448	-0.12058312
79	0xbe795ea0	-0.24352503
80	0xbde57781	-0.11204434
81	0xbd97fbef	-0.074210994
82	0xbd9228d8	-0.071366966
83	0xbe4fcc09	-0.20292677
84	0xbe2e7bb5	-0.17039378
85	0x3a9d985d	0.0012023557
86	0x3eb6d972	0.35712773
87	0x3e421412	0.18952969
88	0x3e34e199	0.17664184
89	0x3d2462a4	0.040133134
90	0x3d077a2d	0.0330755
91	0xbe24220a	-0.1602861
92	0xbe4ffe80	-0.20311928
93	0xbc81a4a0	-0.01582557
94	0x3c80da49	0.015729086
95	0x3e54405d	0.20727678
96	0xbe47a2db	-0.19495718
97	0x3d03ecf3	0.032208394
98	0xbc23888e	-0.009981288
99	0x3cff945b	0.031198671
100	0xbe007aa0	-0.12546778
101	0xbeb27bde	-0.34860128
102	0xbdbdda83	-0.092701934
103	0x3cde8464	0.027162738
104	0xbca97a07	-0.02068807
105	0x3e94962a	0.29020816
106	0xbe1322c2	-0.14368728
107	0xbde1e9e2	-0.11030938
108	0x3e60ee86	0.2196599
109	0x3d09e181	0.033662323
110	0xbe2f37b6	-0.17111096
111	0x3e2637ec	0.1623227
112	0xbdd22acf	-0.10262071
113	0xbe7d38d1	-0.24728705
114	0x3e38f9f0	0.18064094
115	0x3b46ae76	0.003031639
116	0x3e0e1d12	0.13878277
117	0x3d81d2d8	0.063390434
118	0x3c70a47b	0.014687653
119	0xbe904122	-0.28174692
120	0xbde0aeaa	-0.109708145
121	0xbe949b98	-0.2902496
122	0xbec8808f	-0.39160582
123	0xbe175ee0	-0.14782286
124	0x3e9ad7c2	0.30242735
125	0xbe35e690	-0.17763734
126	0xbd872470	-0.06598747
127	0xbe899347	-0.26870176
128	0xbd03fc44	-0.032223
129	0xbe1c07b8	-0.1523732
130	0xbecb99af	-0.3976569
131	0x3dd42010	0.10357678
132	0xbe28bd4b	-0.1647846
133	0x3e545141	0.20734121
134	0xbe34a476	-0.17640862
135	0xbeb5c0de	-0.35498708
136	0xbe8c5da9	-0.27415207
137	0x3e16114f	0.1465504
138	0x3d08bd8e	0.0333839
139	0x3df982fb	0.12183186
140	0xbde1042b	-0.10987123
141	0x3d3094f0	0.043110788
142	0x3c4e9730	0.012609288
143	0xbdce166a	-0.10062869
144	0xbebd4a0f	-0.36970565
145	0x3e9bb9a9	0.30415085
146	0x3dab3d25	0.08361272
147	0xbe8991d7	-0.2686908
148	0xbe172800	-0.14761353
149	0xbdca378f	-0.09873878
150	0xbe23e9d3	-0.16007166
151	0xbe65d397	-0.22443996
152	0xbeb353e8	-0.35024953
153	0xbe87b648	-0.26506257
154	0xbd97f5dc	-0.07419941
155	0x3e4806dc	0.19533867
156	0x3d769836	0.060203753
157	0x3e070b14	0.1318782
158	0xbea34f29	-0.31896332
159	0x3e4d9ee3	0.20080142
160	0xbe3920e3	-0.18078952
161	0x3e2133ba	0.15742388
162	0xbe333f8f	-0.17504714
163	0xbe37aa99	-0.17936172
164	0xbe599f4d	-0.21252175
165	0xbe70e772	-0.2352579
166	0xbe8b48c5	-0.27203956
167	0xbdf8dbfc	-0.12151334
168	0xbe2f6cc3	-0.17131333
169	0x3e5c138a	0.21491829
170	0xbe1dc55d	-0.1540732
171	0xbc275f1d	-0.010215548
172	0xbded375f	-0.11582827
173	0xbd6237c8	-0.05522898
174	0x3e5b8851	0.2143872
175	0x3e6df6fa	0.23238745
176	0x3e5073e5	0.2035671
177	0x3d69e001	0.057098392
178	0x3dd26f01	0.102750786
179	0x3e556128	0.20837843
180	0x3e5229c4	0.20523745
181	0xbd26cdae	-0.040723495
182	0xbe5051ce	-0.20343706
183	0xbddbd79e	-0.10734485
184	0xbd37ae36	-0.044843875
185	0xbda609a3	-0.08107307
186	0x3e113a8c	0.1418249
187	0xbd0b670f	-0.03403383
188	0x3c6dea50	0.0145211965
189	0xbe54281e	-0.20718428
190	0xbd9fb998	-0.07799071
191	0x3e47c5e1	0.19509079
192	0xbdefd3eb	-0.11710342
193	0xbe8e1191	-0.27747777
194	0x3cbc39b2	0.02297673
195	0x3dd1e0ef	0.10247981
196	0x3eb7a88d	0.35870782
197	0x3dfb55e7	0.12272244
198	0xbe12f49e	-0.14351127
199	0xbe93f7f1	-0.28900102
200	0xbcdb309e	-0.02675658
201	0xbe0f39bd	-0.13986869
202	0xbe79ff89	-0.24413885
203	0xbe99f2bb	-0.30068
204	0x3cfd2b27	0.030904366
205	0xbadcbbe6	-0.0016840666
206	0xbec2f774	-0.38079417
207	0x3c463fd0	0.012100175
208	0x3e37ef5a	0.17962399
209	0x3d2c6e49	0.042097364
210	0x3e2c8e68	0.16851199
211	0x3e7a0d44	0.24419123
212	0xbe6947f7	-0.22781359
213	0xbe686d30	-0.22697902
214	0xbe4b51e8	-0.19855464
215	0xbe10f799	-0.14156951
216	0x3e6a49b7	0.22879682
217	0xbd49b53d	-0.049245108
218	0x3e0b85ee	0.13625309
219	0x3e0ae3b8	0.1356343
220	0x3b313845	0.0027041596
221	0xbe1e3394	-0.15449363
222	0xbe363ce5	-0.17796667
223	0x3d9f0c59	0.07766027
224	0x3dd927e7	0.10603314
225	0x3e87b33e	0.26503938
226	0xbd21a753	-0.039466213
227	0xbdd818a3	-0.10551574
228	0xbd5b276d	-0.053504396
229	0xbd0373b9	-0.032092784
230	0xbe70cee2	-0.2351642
231	0xbebb4a7b	-0.36580262
232	0xbea24e04	-0.31700146
233	0x3da1e6fc	0.07905385
234	0xbcd623ba	-0.026140083
235	0xbe98b076	-0.2982213
236	0xbd397739	-0.045279715
237	0x3ddce9af	0.10786759
238	0xbdfcfadd	-0.12352536
239	0xbe19c654	-0.15017062
240	0x3e9bce0f	0.30430648
241	0xbe49002d	-0.19628973
242	0xbe73bb84	-0.23802
243	0xbe5005e0	-0.20314741
244	0x3e40c419	0.18824805
245	0x3e4bad66	0.19890365
246	0x3dfb7159	0.12277479
247	0xbdeb1e32	-0.11480369
248	0x3d7c3378	0.061572522
249	0xbe36a559	-0.17836513
250	0x3eccbaf3	0.3998638
251	0x3e4be60c	0.19911975
252	0xbe89274c	-0.26787794
253	0x3d851622	0.06498362
254	0xbe3ea9fe	-0.18619534
255	0x3ded684b	0.11592158

sequential_2/conv2d_1/Conv2D f4 [64, 3, 3, 32]
0	0x3cc2b4fb	0.023767939
1	0x3d617049	0.055038724
2	0x3ca6f3eb	0.020379981
3	0xbd4a012c	-0.049317524
4	0xbca69087	-0.020332588
5	0xbdc5e262	-0.0966232
6	0xbd6ab5e7	-0.05730238
7	0x3d03a0da	0.032135822
8	0x3d396045	0.045257825
9	0xbd11793d	-0.035516012
10	0x3d55399c	0.052056894
11	0xbd692e2f	-0.05692881
12	0xbd33e308	-0.043917686
13	0x3b24e09c	0.0025158292
14	0xbd58c82f	-0.052925285
15	0xbc7b4487	-0.015336162
16	0xbdc8f96c	-0.098131984
17	0x3d0d2e0a	0.034467734
18	0x3d734b2c	0.05939786
19	0xbda1803d	-0.07885788
20	0xbadd78fd	-0.0016897019
21	0xbd03e6e3	-0.032202613
22	0x3d4dc7aa	0.050239243
23	0xbd80f8e8	-0.06297475
24	0xbc451c5d	-0.012030688
25	0xbd54b15b	-0.05192695
26	0xbd19d822	-0.037559636
27	0xbb45bd90	-0.0030172803
28	0xbdd0e23e	-0.10199402
29	0x3d814a52	0.063130036
30	0x3d4c98a8	0.04995027
31	0x3c53a843	0.012918535
32	0x3d532aa3	0.051554333
33	0xbcf45c55	-0.029829184
34	0x3d8e4942	0.069475666
35	0xbd6a65e2	-0.05722607
36	0x3d5bb7f1	0.053642217
37	0xbdc9b728	-0.098493874
38	0xbd048e78	-0.03236243
39	0x3d16e2c1	0.036837343
40	0x3d62c659	0.05536494
41	0x3d07dfd5	0.033172447
42	0xbd45798f	-0.04821163
43	0x3d8bb4af	0.06821572
44	0x3ca9945f	0.020700632
45	0x3cd471a1	0.025933089
46	0xbd6d5168	-0.057938963
47	0x3d4fcbcc	0.050731465
48	0xbd5542cd	-0.05206566
49	0xbcfe7f2a	-0.031066496
50	0x3d76773a	0.060172297
51	0xbd0ee84c	-0.034889504
52	0xbda108fb	-0.07863041
53	0xbd9ad917	-0.07560938
54	0x3d9f371a	0.07774182
55	0x3d560ab2	0.052256294
56	0x3a42664b	0.00074157555
57	0xbc8ffabd	-0.017575616
58	0x3ca82443	0.020525103
59	0xbcbe9e2e	-0.023268785
60	0x3d6653c3	0.056232225
61	0x3d99fb58	0.07518643
62	0xbc9a0b7a	-0.0188043
63	0xbd8971ce	-0.0671116
64	0x3d63e603	0.05563928
65	0xbda106fe	-0.07862662
66	0x3d088c0c	0.033336684
67	0x3d53a251	0.05166847
68	0xbd4e4f52	-0.050368614
69	0x3d515f6e	0.0511164
70	0x3d814ecb	0.06313857
71	0x3be86c40	0.0070929825
72	0xbd1afcf5	-0.037838895
73	0xbc108417	-0.008820555
74	0xbd91c083	-0.07116797
75	0xbda439d9	-0.08018846
76	0xbd83c71d	-0.06434462
77	0xbd081a41	-0.033228163
78	0xbd567570	-0.05235809
79	0xbd732401	-0.059360508
80	0xbce2a188	-0.027664915
81	0xbb8cc479	-0.0042958823
82	0x3cbe3b0a	0.023221511
83	0xbc81bad3	-0.015836155
84	0xbccb1f2e	-0.024795141
85	0x3d2d03f2	0.04224009
86	0x3c498da1	0.012301833
87	0xbd4dd601	-0.05025292
88	0x3c8df2a8	0.017327622
89	0xbda76b37	-0.081747465
90	0x3c9858c8	0.018597022
91	0xbdb9bff7	-0.090698175
92	0xbd5b32a6	-0.0535151
93	0x3bbe3583	0.005804719
94	0xbd898625	-0.06715039
95	0x3be5d66a	0.0070140855
96	0xbd82a545	-0.06379179
97	0x3da2042b	0.07910951
98	0xbd56957f	-0.052388664
99	0xbd76f8a1	-0.060295705
100	0x3c47203f	0.012153684
101	0xbd6ac5ef	-0.05731767
102	0x3d8fd42d	0.07022891
103	0x3d54d869	0.051964197
104	0x3ccd31db	0.025048187
105	0xbdc17946	-0.09446959
106	0x3d84e898	0.06489676
107	0x3ccfd57a	0.025370348
108	0xbd3f2689	-0.04666761
109	0xbd864123	-0.065553926
110	0xbcbb9542	-0.02289832
111	0xbdbe5d1b	-0.09295102
112	0xbde7c636	-0.113171026
113	0x3af80dbf	0.0018924995
114	0xbdaebf08	-0.0853253
115	0xbd86d451	-0.06583465
116	0x3cb69b22	0.02229077
117	0x3c01d379	0.007923954
118	0xbd3fe54f	-0.046849545
119	0x3c07a843	0.008279863
120	0x3d3c23f9	0.045932744
121	0x3d7192e5	0.05897798
122	0x3bed7901	0.007247091
123	0xbdd88b97	-0.105735
124	0xbd988511	-0.074472554
125	0xbd95bd77	-0.07311528
126	0x3c3ce0b6	0.011528185
127	0xbd883ae4	-0.066518575
128	0x3d57cd4d	0.052686024
129	0xbd9d2392	-0.076728
130	0x3d426dc9	0.04746798
131	0xbd08de9a	-0.033415414
132	0xbda159d0	-0.078784585
133	0xbda56270	-0.08075416
134	0x3d60ac55	0.05485185
135	0xbd37e08d	-0.044891883
136	0xbd8355fe	-0.06412886
137	0xbc3c6889	-0.0114995325
138	0x3cf2c152	0.029633198
139	0x3d3b42e3	0.045718085
140	0xbde3b9f7	-0.11119454
141	0x3c83f740	0.016109109
142	0xbca9ff3e	-0.020751592
143	0xbd971f8e	-0.073790655
144	0x3d4890dd	0.048966277
145	0xbd33a9b8	-0.04386303
146	0xbd96c52c	-0.07361826
147	0xbcc5b0f9	-0.024132239
148	0xbcd1025b	-0.025513818
149	0x3ba498d0	0.0050230995
150	0x3d2f1dc3	0.042752992
151	0x3d9ac453	0.07556977
152	0xbd6524a5	-0.05594315
153	0xbc589355	-0.01321872
154	0xbcfbecb3	-0.030752515
155	0x3cacea3c	0.021107785
156	0xbd66b817	-0.056327906
157	0xbc34e616	-0.011041185
158	0xbc7672a5	-0.015041982
159	0xbd9a28c9	-0.075273104
160	0x3b044fdb	0.00201892
161	0x3c98d8f8	0.018658146
162	0xbd2f0286	-0.042727016
163	0x3d44b7ca	0.048026837
164	0x3aed1c5a	0.0018090114
165	0x3cb8ec1f	0.022573529
166	0xbd9af163	-0.07565572
167	0xbd82f174	-0.0639371
168	0xbc7f0e8a	-0.015567431
169	0x39f85dc1	0.00047372098
170	0x3c371429	0.01117424
171	0x3d399a40	0.04531312
172	0xbd0cdc97	-0.03439006
173	0x3c6a5a21	0.014303715
174	0xbd898265	-0.06714324
175	0xbd2aa6fc	-0.041663155
176	0xbd1b4482	-0.03790713
177	0x3c9a34e1	0.018824043
178	0xbd923ac7	-0.07140117
179	0xbd92a5cc	-0.071605295
180	0xbdb603c6	-0.088874385
181	0x3d646218	0.055757612
182	0xbb8d34de	-0.004309281
183	0x3c6cf113	0.014461773
184	0x3d81f44b	0.06345423
185	0x3cc2c500	0.023775578
186	0x3bd32d82	0.006444634
187	0xbd980390	-0.074225545
188	0x3d304062	0.04303015
189	0xbc604998	-0.013689421
190	0x3d88b893	0.0667583
191	0x3ca2880d	0.019840265
192	0x3d0ebb90	0.034846842
193	0x3bac4f15	0.0052584508
194	0xbc2dcdd9	-0.01060816
195	0xbdc8e3e5	-0.098090924
196	0x3c8e1802	0.017345432
197	0x3d074976	0.033029042
198	0xbdbad178	-0.09121984
199	0x3d95f151	0.07321418
200	0x3cc65282	0.024209265
201	0x3d3894f0	0.045063913
202	0xbc15a5c3	-0.009133759
203	0xbd03a69d	-0.032141317
204	0x3cbd5892	0.023113523
205	0x3c080006	0.008300787
206	0xbd910608	-0.070812285
207	0xbd8a14aa	-0.067422226
208	0xbd720596	-0.05908736
209	0xbd91cabb	-0.07118746
210	0xbc5ccdd8	-0.013476811
211	0xbb513532	-0.0031922576
212	0x3d20d3b3	0.039264392
213	0xbd38833a	-0.045047022
214	0xbcbbd8d0	-0.022930533
215	0xbde270b8	-0.11056656
216	0xbdbabef8	-0.09118456
217	0x3d8e9d1a	0.069635585
218	0xbd304dec	-0.043043062
219	0x3c9a33a3	0.01882345
220	0xbc9a0028	-0.018798903
221	0x3c646a59	0.013941371
222	0xbdac670d	-0.08418093
223	0x3c555841	0.01302153
224	0xbce23af2	-0.027615998
225	0xbd948f0a	-0.07253845
226	0xbcc08067	-0.023498727
227	0xbbf76a48	-0.0075505115
228	0xbcc9fe90	-0.024657518
229	0xbc04640e	-0.0080804955
230	0x3cc8c1ff	0.024506567
231	0xbd0d240c	-0.034458205
232	0x3cb41993	0.021984851
233	0x3c5c99c6	0.013464397
234	0xbc529ec6	-0.012855237
235	0xbd9ccdeb	-0.07656463
236	0x3cc091fb	0.023507109
237	0xbdba3b56	-0.09093349
238	0x3c99705b	0.018730333
239	0xbdbae992	-0.09126581
240	0xbdb6a5e3	-0.08918359
241	0xbb46d757	-0.0030340755
242	0xbdcc0d06	-0.099634215
243	0xbc8703f7	-0.016481383
244	0xbda35553	-0.07975259
245	0xbd649197	-0.055802908
246	0xbd92cfb9	-0.07168526
247	0xbccbb40d	-0.024866128
248	0xbdda9a6f	-0.10673987
249	0x3d87d8d9	0.06633157
250	0xbd818a1d	-0.06325171
251	0x3d18cc02	0.037303932
252	0x3d9116eb	0.070844494
253	0xbbe229e6	-0.0069019673
254	0x3d3e1007	0.046402004
255	0xbc3c4c8a	-0.011492858

sequential_2/conv2d_2/Conv2D f4 [64, 3, 3, 64]
0	0x3d3c47d4	0.04596694
1	0x3deee832	0.116653815
2	0x3c015a18	0.007895015
3	0xbc42a47e	-0.011880038
4	0xbe47c3ff	-0.1950836
5	0xbdfedc24	-0.12444332
6	0xbda2b0c5	-0.07943872
7	0xbd9937ec	-0.074813694
8	0xb9cc40cf	-0.00038958198
9	0x3d8e910e	0.06961261
10	0xbcfa6f7a	-0.030570734
11	0x3e47c8be	0.19510171
12	0x3e70d27a	0.2351779
13	0x3e7f7aae	0.24949142
14	0x3dc51478	0.09623045
15	0x3d1dedc5	0.038556833
16	0xbd94b627	-0.07261305
17	0x3c756a85	0.0149790095
18	0x3b9ed640	0.004847318
19	0x3c63952d	0.013890547
20	0xb8abf781	-8.2000166e-05
21	0xbdf5d0b4	-0.120026976
22	0xbd8867b4	-0.06660405
23	0xbdbc694f	-0.091997735
24	0x3dd8e9f9	0.10591502
25	0xbe43dcac	-0.19127148
26	0xbdb9b3c8	-0.09067494
27	0x3c097ab7	0.008391074
28	0x3beb3234	0.0071776155
29	0x3dcd91ce	0.10037576
30	0xbe0c0d48	-0.13676941
31	0x3d8405bb	0.064464055
32	0xbe19417f	-0.14966391
33	0xbc930fc9	-0.017951863
34	0xbdfc4643	-0.12318089
35	0x3d2e4ba3	0.0425526
36	0x3e21a860	0.15786886
37	0xbe1e97ec	-0.15487641
38	0xbd8e4420	-0.069465876
39	0x3d9ccae9	0.076558895
40	0xbcfa1591	-0.030527862
41	0x3d67eb97	0.05662116
42	0x3d9a0e37	0.075222425
43	0xbd83ee0c	-0.06441888
44	0xbcd455a9	-0.025919752
45	0xbb2c3f6e	-0.0026282924
46	0x3e212183	0.1573544
47	0x3e239511	0.15974833
48	0xbba2d73c	-0.0049695056
49	0xbe8532b5	-0.2601525
50	0xbdcd617f	-0.100283615
51	0xbe3c0be0	-0.18363905
52	0x3d4d20f3	0.05008025
53	0x3c55b04f	0.0130425235
54	0x3c87f9a0	0.016598523
55	0x3cd263b8	0.025682315
56	0xbe003ed3	-0.12523966
57	0x3db03f8c	0.086058706
58	0x3c490419	0.012269043
59	0x3b88f4da	0.004179579
60	0xbcbe5282	-0.023232702
61	0x3de7e977	0.11323827
62	0xbe770c98	-0.24125898
63	0xbd8c504f	-0.06851255
64	0x3d6ad55e	0.05733239
65	0x3d9efd47	0.077631526
66	0xbdaeed38	-0.0854134
67	0xbcc20914	-0.02368597
68	0xbdf37d84	-0.118891746
69	0xbdb2cdc3	-0.08730652
70	0xbda27b41	-0.07933665
71	0xbd1a402e	-0.037658863
72	0xbd06ae72	-0.032881208
73	0x3d6b7bf0	0.057491243
74	0x3dbb5820	0.09147668
75	0x3e2ba1d5	0.16760953
76	0x3e6ec066	0.23315582
77	0x3dcf9559	0.10135908
78	0xbd20d358	-0.039264053
79	0x3df270fb	0.118379556
80	0x3d58fcbd	0.052975405
81	0xbd836419	-0.064155765
82	0x3c33753b	0.010953243
83	0xbdbc8093	-0.09204211
84	0xbcc0c021	-0.023529114
85	0xbd7afc75	-0.061275918
86	0xbd863390	-0.065528035
87	0xbd94a6a9	-0.072583504
88	0x3d4b00f5	0.04956146
89	0xbe6a8c1b	-0.22905008
90	0xbd88b67b	-0.066754304
91	0xbdb42b0c	-0.08797273
92	0xbbec4ba0	-0.0072111636
93	0x3e4ca29c	0.19983906
94	0xbe3265f7	-0.17421709
95	0x3ded173c	0.11576697
96	0xbeb6f8cb	-0.3573669
97	0xbb1242e3	-0.00223177
98	0xbdd66b3d	-0.10469673
99	0xbd3130c7	-0.04325941
100	0xbb802d6a	-0.003911664
101	0xbe419afd	-0.1890678
102	0xbe2d193f	-0.16904162
103	0x3db7d00b	0.08975228
104	0xbccedb24	-0.025250979
105	0xbb501c24	-0.0031755054
106	0x3e010fd4	0.12603694
107	0x3da68c54	0.08132234
108	0x3c08453d	0.008317289
109	0xbb548633	-0.0032428622
110	0x3e34a7a0	0.17642069
111	0x3dc0da38	0.09416622
112	0xbd97d035	-0.07412759
113	0xbea98c78	-0.33114982
114	0xbe1c231d	-0.1524777
115	0xbe52ec3d	-0.2059793
116	0x3d834b0c	0.064107984
117	0x3ce5c241	0.028046729
118	0xbd3bb454	-0.04582627
119	0x3dab4f4c	0.08364734
120	0xbdef030d	-0.11670504
121	0x3e06970e	0.1314356
122	0xbd25166a	-0.04030458
123	0xbd52b973	-0.05144639
124	0x3d3f249d	0.046665777
125	0x3da72e4c	0.08163127
126	0xbea5ada7	-0.3235905
127	0x3d2d8bef	0.04236978
128	0xbd4c84cb	-0.04993133
129	0x3dc0f48c	0.094216436
130	0xbdb2f53f	-0.08738183
131	0x3dc24be4	0.09487131
132	0xbdd04318	-0.10169047
133	0xbe1e403a	-0.15454188
134	0xbd717661	-0.058950786
135	0xbd72c101	-0.059266094
136	0xbcbd5ccb	-0.023115536
137	0xbd8793c9	-0.06619985
138	0x3ce10aef	0.027471034
139	0x3e06ed93	0.13176565
140	0x3e5e98f2	0.21738032
141	0x3da44df6	0.08022682
142	0xbdd62fce	-0.10458337
143	0x3d1faca6	0.03898301
144	0x3ca13c12	0.019681964
145	0x3cc66bc5	0.02422131
146	0x3c8368c3	0.016041165
147	0x3d7947a8	0.060859352
148	0x3d70382d	0.058647323
149	0xbe444095	-0.19165261
150	0x3ca0e246	0.019639146
151	0xbbda82c6	-0.0066684214
152	0x3c0445cf	0.008073284
153	0xbe2f33b0	-0.17109561
154	0xbb331e42	-0.0027331267
155	0x3c0118f2	0.007879483
156	0x3ce36200	0.027756691
157	0x3dc43c11	0.09581769
158	0xbe0ac7cc	-0.13552779
159	0xbc5826da	-0.013192857
160	0xbedb6559	-0.4285076
161	0xbd93ee26	-0.072231576
162	0x3b8edc9d	0.0043597952
163	0x3c81bf16	0.015838187
164	0xbd099e21	-0.03359807
165	0xbe04c363	-0.12965159
166	0xbdb068f8	-0.08613771
167	0xbb916511	-0.004437097
168	0xbc467274	-0.012112249
169	0x3cd8d528	0.026468828
170	0x3dee5168	0.11636621
171	0x3c183ebf	0.009292304
172	0x3bc35c9f	0.005961969
173	0xbd0834ee	-0.033253603
174	0x3e7fba72	0.24973467
175	0x3e30c861	0.17263938
176	0x3d25747e	0.0403943
177	0xbe754fdb	-0.23956244
178	0x3d95b58d	0.07310019
179	0xbe881862	-0.26581103
180	0x3c8951af	0.016762583
181	0x3d704110	0.0586558
182	0xbd629dad	-0.055326153
183	0x3cc4dcf1	0.024031134
184	0xbc5a3c8a	-0.013320098
185	0x3db3205c	0.087464064
186	0x3d6797e3	0.056541335
187	0xbdf602a5	-0.12012223
188	0xbd854f2c	-0.065092415
189	0x3d393ed7	0.045225944
190	0xbea41f67	-0.32055208
191	0x3dc4b5f0	0.09605014
192	0x3c79b3c2	0.0152406115
193	0x3ce0a405	0.02742196
194	0xbd18b52e	-0.03728216
195	0xbdf2cecc	-0.118558496
196	0xbdf70ed9	-0.12063379
197	0xbda19d6d	-0.07891355
198	0xbc472551	-0.012154893
199	0xbdcc9402	-0.09989168
200	0xbca383b1	-0.019960256
201	0xbd073eb2	-0.033018775
202	0x3d4e8188	0.0504165
203	0xbd3d89c5	-0.046273965
204	0x3e582c64	0.21110684
205	0x3e0ae982	0.13565639
206	0xbda4db55	-0.08049647
207	0x3c759830	0.014989898
208	0xbc8a3730	-0.016872019
209	0x3cfa6735	0.030566791
210	0x3d984266	0.074345395
211	0x3d7153e1	0.058917884
212	0x3cbbd865	0.022930333
213	0xbe00fe2b	-0.12596957
214	0x3c871992	0.016491685
215	0xbe15e4c3	-0.14638047
216	0xbd512361	-0.05105913
217	0xbe9e87a0	-0.3096285
218	0xbdcdd92a	-0.100511864
219	0x3c110a15	0.008852501
220	0x3d18f214	0.03734024
221	0x3e14900b	0.14508073
222	0xbe59d14a	-0.21271244
223	0x3db24e59	0.0870635
224	0xbe86094d	-0.2617897
225	0xb7ffea8a	-3.0507585e-05
226	0xbe1707a0	-0.14749002
227	0xbc4d5894	-0.012533326
228	0x3da03575	0.07822696
229	0xbe07f258	-0.1327604
230	0xbe010783	-0.12600522
231	0x3db0a0fa	0.08624454
232	0x3d3cfe69	0.046141062
233	0x3d330700	0.043707848
234	0x3da97a47	0.08275276
235	0x3bcd7566	0.0062700985
236	0xbdb504de	-0.08838819
237	0xbdd39ab1	-0.103322394
238	0x3e242e57	0.16033302
239	0x3e1e9557	0.15486656
240	0xbc50a1fc	-0.012733933
241	0xbe575727	-0.2102934
242	0xbe5f5423	-0.2180944
243	0xbea6f133	-0.32605895
244	0xbc68046b	-0.01416121
245	0x3dac52fe	0.08414267
246	0xbd362ceb	-0.04447643
247	0x3d9ecb0e	0.07753573
248	0xbe3d1cc8	-0.1846801
249	0x3d748c00	0.059703827
250	0xbd0998ca	-0.033592977
251	0x3d4084b9	0.047001574
252	0x3b337989	0.0027385673
253	0xbdb2da42	-0.087330356
254	0xbe48eb8e	-0.19621107
255	0x3c02fd4d	0.007994962

sequential_2/conv2d_3/Conv2D f4 [64, 3, 3, 64]
0	0x3e14d603	0.14534764
1	0xbe31c886	-0.1736165
2	0x3da1388c	0.078721136
3	0x3dd5c48d	0.1043788
4	0xbcc32c35	-0.02382479
5	0xbd7b55e8	-0.061361223
6	0x3c56cb43	0.013109985
7	0x3d875136	0.06607287
8	0xbd183f25	-0.037169594
9	0xbd3ea09d	-0.04653989
10	0x3c295602	0.010335447
11	0xbd4fddc3	-0.050748598
12	0xbd50fc90	-0.051022112
13	0x3d52d9d5	0.051477272
14	0xbbfdeb28	-0.00774898
15	0xbe760432	-0.24025038
16	0x3cae4c63	0.021276658
17	0xbd745938	-0.059655398
18	0xbd575fe9	-0.0525817
19	0x3d8b6cd0	0.06807864
20	0xbe0d1661	-0.13778068
21	0x3d2fb13b	0.04289363
22	0x3e3f6111	0.18689372
23	0xbe7ffbb0	-0.24998355
24	0xbe8a7103	-0.27039346
25	0xbe2e674e	-0.17031595
26	0x3d6221e2	0.055208094
27	0xbe3b30f2	-0.1828039
28	0x3cf14ad3	0.029454624
29	0x3bc651f5	0.0060522505
30	0x39ba1627	0.0003549319
31	0x3c08c0a4	0.00834671
32	0xbe7ad48a	-0.2449514
33	0x3d6db9fe	0.058038704
34	0x3e11bcaa	0.14232126
35	0x3d6e3ce4	0.05816354
36	0xbcacba83	-0.02108503
37	0x3d6f4814	0.05841835
38	0x3d389855	0.04506715
39	0x3b75c2bd	0.0037500106
40	0x3cc6c8be	0.024265643
41	0xbc755638	-0.014974169
42	0x3e40857c	0.1880092
43	0x3da2fbe9	0.07958204
44	0x3e0c3b82	0.13694575
45	0xbdd7d045	-0.10537771
46	0x3c841899	0.01612501
47	0x3d2bae49	0.04191426
48	0xbde44041	-0.11145068
49	0xbc1a2018	-0.009407066
50	0x3d0095dd	0.03139292
51	0xbd664b02	-0.056223877
52	0xbc1866f8	-0.009301893
53	0x3d362839	0.044471953
54	0x3c78032c	0.015137475
55	0xbd29786d	-0.041374613
56	0xbdaf16e6	-0.085492894
57	0xbe9a1d20	-0.30100346
58	0xbe0d4020	-0.13793993
59	0xbd566cdc	-0.05234991
60	0x3d7ebeb0	0.062193573
61	0xbc642b24	-0.013926301
62	0xbdd6d8b9	-0.10490555
63	0x3d8b223e	0.067936406
64	0x3d9ba5a9	0.075999565
65	0xbd221799	-0.039573286
66	0xbdbe5eb5	-0.09295408
67	0xbe2c3e7f	-0.16820715
68	0xbd9cc9f5	-0.07655708
69	0xbd35c0b8	-0.044373244
70	0x3d8cf091	0.06881822
71	0x3cf65df6	0.030074101
72	0xbd8eb4c8	-0.06968075
73	0xbc21d8ab	-0.009878318
74	0xbe023b8a	-0.12718025
75	0xbce9194d	-0.028454447
76	0xbd4e9ae5	-0.050440688
77	0x3d4edbd0	0.0505026
78	0x3b53ca73	0.0032316714
79	0xbeba14d3	-0.36344013
80	0xbd154ceb	-0.036450308
81	0x3d0e94ec	0.03480999
82	0x3b9388e8	0.0045024045
83	0x3d4412f0	0.047869623
84	0xbeaef143	-0.34168443
85	0xbd9a9bae	-0.07549225
86	0x3db4f281	0.088353164
87	0xbe1a6fc7	-0.15081702
88	0xbe005073	-0.12530689
89	0xbddca6d6	-0.10774009
90	0xbc486711	-0.012231604
91	0xbe73fc62	-0.23826745
92	0x3c71b672	0.014752971
93	0xbc96c169	-0.018402772
94	0x3d313c21	0.043270234
95	0xbc4c9d19	-0.012488627
96	0xbd8ebeed	-0.0697001
97	0xbc62d387	-0.013844377
98	0x3d8ba4ba	0.068185285
99	0x3b2c395e	0.002627931
100	0xbe29c9c1	-0.1658087
101	0xbcb88e50	-0.022528797
102	0x3c7e9e2b	0.01554064
103	0x3d426196	0.047456346
104	0x3d331646	0.043722413
105	0xbcbd8f98	-0.02313976
106	0xbc917bc3	-0.01775921
107	0xbcd80cd1	-0.026373299
108	0x3d9f3afe	0.07774924
109	0xbdd51a3e	-0.10405396
110	0x3ccc9df7	0.024977667
111	0x3cef475c	0.029208831
112	0xbd6eeeb9	-0.058333132
113	0x3c488066	0.012237644
114	0x3cd26b88	0.02568604
115	0xbd032e41	-0.032026533
116	0xbc869800	-0.016429901
117	0xbce15b70	-0.027509421
118	0x3cd21ed2	0.025649462
119	0x3cdc7ae1	0.026914062
120	0xbe75d059	-0.2400526
121	0xbe6924c1	-0.22767927
122	0xbd8251db	-0.06363269
123	0xbe090f93	-0.13384847
124	0x3cfe6bdd	0.031057293
125	0xbcfdbdaa	-0.030974228
126	0xbe55ae23	-0.20867209
127	0x3c3900b7	0.011291674
128	0x3d9e4b51	0.07729209
129	0xbd0fb4dd	-0.035084594
130	0x3e06a72a	0.13149706
131	0xbdc3cfae	-0.09561096
132	0xbde02600	-0.10944748
133	0x3d4fd1b1	0.050737087
134	0xbcdc1d15	-0.026869336
135	0x3e1dcdac	0.15410489
136	0x3c8994a7	0.016794516
137	0x3b5b44b8	0.0033457708
138	0xbe854560	-0.2602949
139	0x3d146200	0.036226273
140	0xbc44b6f0	-0.012006506
141	0x3a435d6f	0.00074525824
142	0xbdad4fc4	-0.0846248
143	0xbee8be93	-0.45457897
144	0xbe5d6d6d	-0.21623774
145	0xbd33273d	-0.043738592
146	0x3e1d9c92	0.15391758
147	0xbdbc5079	-0.091950364
148	0xbe51d0c9	-0.20489801
149	0xbe3342df	-0.17505978
150	0x3ca56785	0.020190964
151	0x3e00dd3e	0.12584397
152	0xbe109a8f	-0.1412146
153	0xbe6d2c40	-0.23161411
154	0x3d37587d	0.044762123
155	0xbdb28895	-0.08717457
156	0xbcc917d7	-0.0245475
157	0xbd5991e5	-0.05311765
158	0x3d729d29	0.05923191
159	0xbd5f1453	-0.054462742
160	0x3d5f58cc	0.054528043
161	0xbd54b141	-0.051926855
162	0xbdac0611	-0.083995946
163	0xbd831e75	-0.064022936
164	0xbda260a5	-0.0792859
165	0x3ccd7a79	0.025082814
166	0x3dd35a27	0.103199296
167	0x3d258738	0.040412158
168	0xbd4f4753	-0.05060513
169	0xbca98c7b	-0.02069687
170	0xbdcc224e	-0.099674806
171	0x3c32c4d6	0.010911187
172	0xbdd2c3bf	-0.10291242
173	0x3d176427	0.036960747
174	0xbce534d7	-0.027979298
175	0x3d2db351	0.042407338
176	0xbe013420	-0.1261754
177	0xbbe9872d	-0.00712671
178	0x3d07a8fc	0.03312014
179	0xbcd3baf7	-0.025845988
180	0xbcd0ea01	-0.025502207
181	0xbd77d04c	-0.06050138
182	0xbcaf3d99	-0.021391677
183	0x3c88cc0a	0.016698856
184	0xbdc24ad8	-0.094869316
185	0xbe233518	-0.15938222
186	0xbda20c28	-0.07912475
187	0xbd8fa007	-0.07012945
188	0xbd8e2cb3	-0.069421194
189	0x3d7a6c94	0.061138704
190	0xbe3463c6	-0.17616186
191	0x3dac9c64	0.08428267
192	0x3dce23f7	0.100654535
193	0xbd85bca2	-0.065301195
194	0x3bf4f5ba	0.007475582
195	0x3da69de1	0.08135582
196	0x3c538eb2	0.012912439
197	0xbd8b6036	-0.0680546
198	0x3d65d1a1	0.05610812
199	0x3da784a2	0.081795946
200	0xbd865e77	-0.065609865
201	0xbd9b9d64	-0.07598379
202	0xbe7f39a2	-0.24924329
203	0x3d827ebf	0.06371831
204	0x3cf9a5d0	0.030474573
205	0x3d558729	0.052130852
206	0x3cb95712	0.022624526
207	0xbe1625e6	-0.14662895
208	0xbe07d5db	-0.13265173
209	0xbd9ffb61	-0.078116186
210	0xbc255ca8	-0.010092892
211	0xbc4e98af	-0.012609645
212	0xbe4c52d2	-0.19953468
213	0xbd7466c7	-0.05966833
214	0x3e2d6232	0.1693199
215	0xbe83932a	-0.25698215
216	0xbe80a2d2	-0.25124222
217	0xbe084028	-0.13305724
218	0x3d6c78ae	0.057732277
219	0xbed19759	-0.40935782
220	0x3d8813c3	0.06644394
221	0x3c6109b7	0.013735226
222	0x3c18ad1e	0.009318618
223	0x3d711de2	0.05886639
224	0xbe4a3c77	-0.19749628
225	0xbd42cc21	-0.047557954
226	0x3d9319bf	0.07182645
227	0x3d34bc79	0.044125054
228	0xbd697af8	-0.057002038
229	0xbd27372f	-0.04082411
230	0xbd0b776d	-0.03404944
231	0x3d5599be	0.052148573
232	0x3cc1dc31	0.023664566
233	0xbd22e15d	-0.039765704
234	0xbd4a66cd	-0.049414445
235	0xbda566b1	-0.080762275
236	0xbdd3dcbf	-0.10344838
237	0xbe79486a	-0.2434403
238	0x3cfd92a0	0.030953705
239	0x3d3f88c1	0.046761278
240	0xbe1c92d0	-0.1529038
241	0xbc10e4b1	-0.008843587
242	0x3bf34182	0.0074235806
243	0xbd86b665	-0.06577758
244	0x3c61d20f	0.013782992
245	0xbd063260	-0.032762885
246	0xbda2a6f9	-0.07942004
247	0x3d355b1d	0.044276346
248	0xbe5b0474	-0.21388417
249	0xbde8d87d	-0.11369417
250	0xbe3c5463	-0.18391566
251	0xbc925991	-0.017864974
252	0x3d0c872f	0.03430861
253	0x3c9afb10	0.018918544
254	0xbdb396e9	-0.08769018
255	0x3d4a2748	0.049353868
